…
ned": null, "resume": null, "accumulation_steps": null, "use_checkpoint": false, "disable_amp": false, "output": "/lustre/scratch/client/vinai/users/trangpvh1/repo/vinai_prj/VMamba_Global_local_1/classification", "tag": "20240822133502", "eval": false, "throughput": false, "fused_layernorm": false, "optim": null, "model_ema": true, "model_ema_decay": 0.9999, "model_ema_force_cpu": false, "memory_limit_rate": -1}
[2024-08-22 13:35:11 vssm_tiny_v0] (main.py 109): INFO Creating model:vssm/vssm_tiny_v0
[2024-08-22 13:35:12 vssm_tiny_v0] (main.py 114): INFO VSSM(
  (patch_embed): Sequential(
    (0): Conv2d(3, 96, kernel_size=(4, 4), stride=(4, 4))
    (1): Permute()
    (2): LayerNorm((96,), eps=1e-05, elementwise_affine=True)
  )
  (layers): ModuleList(
    (0): Sequential(
      (blocks): Sequential(
        (0): VSSBlock(
          (norm): LayerNorm((96,), eps=1e-05, elementwise_affine=True)
          (op): SS2D(
            (in_proj): Linear(in_features=96, out_features=384, bias=False)
            (act): SiLU()
            (conv2d): Conv2d(192, 192, kernel_size=(3, 3), stride=(1, 1), padding=(1, 1), groups=192)
            (out_norm): LayerNorm((192,), eps=1e-05, elementwise_affine=True)
            (out_proj): Linear(in_features=192, out_features=96, bias=False)
            (dropout): Identity()
          )
          (drop_path): timm.DropPath(0.0)
          (norm2): LayerNorm((96,), eps=1e-05, elementwise_affine=True)
          (mlp): MoE_vmamba(
            (fc1): FMoESSMMLPOpt(
              (gate): CustomNaiveGate_Balance_SMoE(
                (gate): Linear(in_features=96, out_features=16, bias=True)
              )
              (experts): _Expert(
                (htoh4): FMoELinear(num_expert=16, in_features=96,         out_features=48, bias=True, rank=0)
                (h4toh): FMoELinear(num_expert=16, in_features=48,         out_features=96, bias=True, rank=0)
                (activation): GELU(approximate='none')
              )
            )
          )
        )
        (1): VSSBlock(
          (norm): LayerNorm((96,), eps=1e-05, elementwise_affine=True)
          (op): SS2D(
            (in_proj): Linear(in_features=96, out_features=384, bias=False)
            (act): SiLU()
            (conv2d): Conv2d(192, 192, kernel_size=(3, 3), stride=(1, 1), padding=(1, 1), groups=192)
            (out_norm): LayerNorm((192,), eps=1e-05, elementwise_affine=True)
            (out_proj): Linear(in_features=192, out_features=96, bias=False)
            (dropout): Identity()
          )
          (drop_path): timm.DropPath(0.014285714365541935)
          (norm2): LayerNorm((96,), eps=1e-05, elementwise_affine=True)
          (mlp): MoE_vmamba(
            (fc1): FMoESSMMLPOpt(
              (gate): CustomNaiveGate_Balance_SMoE(
                (gate): Linear(in_features=96, out_features=16, bias=True)
              )
              (experts): _Expert(
                (htoh4): FMoELinear(num_expert=16, in_features=96,         out_features=48, bias=True, rank=0)
                (h4toh): FMoELinear(num_expert=16, in_features=48,         out_features=96, bias=True, rank=0)
                (activation): GELU(approximate='none')
              )
            )
          )
        )
      )
      (downsample): PatchMerging2D(
        (reduction): Linear(in_features=384, out_features=192, bias=False)
        (norm): LayerNorm((384,), eps=1e-05, elementwise_affine=True)
      )
    )
    (1): Sequential(
      (blocks): Sequential(
        (0): VSSBlock(
          (norm): LayerNorm((192,), eps=1e-05, elementwise_affine=True)
          (op): SS2D(
            (in_proj): Linear(in_features=192, out_features=768, bias=False)
            (act): SiLU()
            (conv2d): Conv2d(384, 384, kernel_size=(3, 3), stride=(1, 1), padding=(1, 1), groups=384)
            (out_norm): LayerNorm((384,), eps=1e-05, elementwise_affine=True)
            (out_proj): Linear(in_features=384, out_features=192, bias=False)
            (dropout): Identity()
          )
          (drop_path): timm.DropPath(0.02857142873108387)
          (norm2): LayerNorm((192,), eps=1e-05, elementwise_affine=True)
          (mlp): MoE_vmamba(
            (fc1): FMoESSMMLPOpt(
              (gate): CustomNaiveGate_Balance_SMoE(
                (gate): Linear(in_features=192, out_features=16, bias=True)
              )
              (experts): _Expert(
                (htoh4): FMoELinear(num_expert=16, in_features=192,         out_features=48, bias=True, rank=0)
                (h4toh): FMoELinear(num_expert=16, in_features=48,         out_features=192, bias=True, rank=0)
                (activation): GELU(approximate='none')
              )
            )
          )
        )
        (1): VSSBlock(
          (norm): LayerNorm((192,), eps=1e-05, elementwise_affine=True)
          (op): SS2D(
            (in_proj): Linear(in_features=192, out_features=768, bias=False)
            (act): SiLU()
            (conv2d): Conv2d(384, 384, kernel_size=(3, 3), stride=(1, 1), padding=(1, 1), groups=384)
            (out_norm): LayerNorm((384,), eps=1e-05, elementwise_affine=True)
            (out_proj): Linear(in_features=384, out_features=192, bias=False)
            (dropout): Identity()
          )
          (drop_path): timm.DropPath(0.04285714402794838)
          (norm2): LayerNorm((192,), eps=1e-05, elementwise_affine=True)
          (mlp): MoE_vmamba(
            (fc1): FMoESSMMLPOpt(
              (gate): CustomNaiveGate_Balance_SMoE(
                (gate): Linear(in_features=192, out_features=16, bias=True)
              )
              (experts): _Expert(
                (htoh4): FMoELinear(num_expert=16, in_features=192,         out_features=48, bias=True, rank=0)
                (h4toh): FMoELinear(num_expert=16, in_features=48,         out_features=192, bias=True, rank=0)
                (activation): GELU(approximate='none')
              )
            )
          )
        )
      )
      (downsample): PatchMerging2D(
        (reduction): Linear(in_features=768, out_features=384, bias=False)
        (norm): LayerNorm((768,), eps=1e-05, elementwise_affine=True)
      )
    )
    (2): Sequential(
      (blocks): Sequential(
        (0): VSSBlock(
          (norm): LayerNorm((384,), eps=1e-05, elementwise_affine=True)
          (op): SS2D(
            (in_proj): Linear(in_features=384, out_features=1536, bias=False)
            (act): SiLU()
            (conv2d): Conv2d(768, 768, kernel_size=(3, 3), stride=(1, 1), padding=(1, 1), groups=768)
            (out_norm): LayerNorm((768,), eps=1e-05, elementwise_affine=True)
            (out_proj): Linear(in_features=768, out_features=384, bias=False)
            (dropout): Identity()
          )
          (drop_path): timm.DropPath(0.05714285746216774)
          (norm2): LayerNorm((384,), eps=1e-05, elementwise_affine=True)
          (mlp): MoE_vmamba(
            (fc1): FMoESSMMLPOpt(
              (gate): CustomNaiveGate_Balance_SMoE(
                (gate): Linear(in_features=384, out_features=16, bias=True)
              )
              (experts): _Expert(
                (htoh4): FMoELinear(num_expert=16, in_features=384,         out_features=48, bias=True, rank=0)
                (h4toh): FMoELinear(num_expert=16, in_features=48,         out_features=384, bias=True, rank=0)
                (activation): GELU(approximate='none')
              )
            )
          )
        )
        (1): VSSBlock(
          (norm): LayerNorm((384,), eps=1e-05, elementwise_affine=True)
          (op): SS2D(
            (in_proj): Linear(in_features=384, out_features=1536, bias=False)
            (act): SiLU()
            (conv2d): Conv2d(768, 768, kernel_size=(3, 3), stride=(1, 1), padding=(1, 1), groups=768)
            (out_norm): LayerNorm((768,), eps=1e-05, elementwise_affine=True)
            (out_proj): Linear(in_features=768, out_features=384, bias=False)
            (dropout): Identity()
          )
          (drop_path): timm.DropPath(0.0714285746216774)
          (norm2): LayerNorm((384,), eps=1e-05, elementwise_affine=True)
          (mlp): MoE_vmamba(
            (fc1): FMoESSMMLPOpt(
              (gate): CustomNaiveGate_Balance_SMoE(
                (gate): Linear(in_features=384, out_features=16, bias=True)
              )
              (experts): _Expert(
                (htoh4): FMoELinear(num_expert=16, in_features=384,         out_features=48, bias=True, rank=0)
                (h4toh): FMoELinear(num_expert=16, in_features=48,         out_features=384, bias=True, rank=0)
                (activation): GELU(approximate='none')
              )
            )
          )
        )
        (2): VSSBlock(
          (norm): LayerNorm((384,), eps=1e-05, elementwise_affine=True)
          (op): SS2D(
            (in_proj): Linear(in_features=384, out_features=1536, bias=False)
            (act): SiLU()
            (conv2d): Conv2d(768, 768, kernel_size=(3, 3), stride=(1, 1), padding=(1, 1), groups=768)
            (out_norm): LayerNorm((768,), eps=1e-05, elementwise_affine=True)
            (out_proj): Linear(in_features=768, out_features=384, bias=False)
            (dropout): Identity()
          )
          (drop_path): timm.DropPath(0.08571428805589676)
          (norm2): LayerNorm((384,), eps=1e-05, elementwise_affine=True)
          (mlp): MoE_vmamba(
            (fc1): FMoESSMMLPOpt(
              (gate): CustomNaiveGate_Balance_SMoE(
                (gate): Linear(in_features=384, out_features=16, bias=True)
              )
              (experts): _Expert(
                (htoh4): FMoELinear(num_expert=16, in_features=384,         out_features=48, bias=True, rank=0)
                (h4toh): FMoELinear(num_expert=16, in_features=48,         out_features=384, bias=True, rank=0)
                (activation): GELU(approximate='none')
              )
            )
          )
        )
        (3): VSSBlock(
          (norm): LayerNorm((384,), eps=1e-05, elementwise_affine=True)
          (op): SS2D(
            (in_proj): Linear(in_features=384, out_features=1536, bias=False)
            (act): SiLU()
            (conv2d): Conv2d(768, 768, kernel_size=(3, 3), stride=(1, 1), padding=(1, 1), groups=768)
            (out_norm): LayerNorm((768,), eps=1e-05, elementwise_affine=True)
            (out_proj): Linear(in_features=768, out_features=384, bias=False)
            (dropout): Identity()
          )
          (drop_path): timm.DropPath(0.10000000149011612)
          (norm2): LayerNorm((384,), eps=1e-05, elementwise_affine=True)
          (mlp): MoE_vmamba(
            (fc1): FMoESSMMLPOpt(
              (gate): CustomNaiveGate_Balance_SMoE(
                (gate): Linear(in_features=384, out_features=16, bias=True)
              )
              (experts): _Expert(
                (htoh4): FMoELinear(num_expert=16, in_features=384,         out_features=48, bias=True, rank=0)
                (h4toh): FMoELinear(num_expert=16, in_features=48,         out_features=384, bias=True, rank=0)
                (activation): GELU(approximate='none')
              )
            )
          )
        )
        (4): VSSBlock(
          (norm): LayerNorm((384,), eps=1e-05, elementwise_affine=True)
          (op): SS2D(
            (in_proj): Linear(in_features=384, out_features=1536, bias=False)
            (act): SiLU()
            (conv2d): Conv2d(768, 768, kernel_size=(3, 3), stride=(1, 1), padding=(1, 1), groups=768)
            (out_norm): LayerNorm((768,), eps=1e-05, elementwise_affine=True)
            (out_proj): Linear(in_features=768, out_features=384, bias=False)
            (dropout): Identity()
          )
          (drop_path): timm.DropPath(0.11428571492433548)
          (norm2): LayerNorm((384,), eps=1e-05, elementwise_affine=True)
          (mlp): MoE_vmamba(
            (fc1): FMoESSMMLPOpt(
              (gate): CustomNaiveGate_Balance_SMoE(
                (gate): Linear(in_features=384, out_features=16, bias=True)
              )
              (experts): _Expert(
                (htoh4): FMoELinear(num_expert=16, in_features=384,         out_features=48, bias=True, rank=0)
                (h4toh): FMoELinear(num_expert=16, in_features=48,         out_features=384, bias=True, rank=0)
                (activation): GELU(approximate='none')
              )
            )
          )
        )
        (5): VSSBlock(
          (norm): LayerNorm((384,), eps=1e-05, elementwise_affine=True)
          (op): SS2D(
            (in_proj): Linear(in_features=384, out_features=1536, bias=False)
            (act): SiLU()
            (conv2d): Conv2d(768, 768, kernel_size=(3, 3), stride=(1, 1), padding=(1, 1), groups=768)
            (out_norm): LayerNorm((768,), eps=1e-05, elementwise_affine=True)
            (out_proj): Linear(in_features=768, out_features=384, bias=False)
            (dropout): Identity()
          )
          (drop_path): timm.DropPath(0.12857143580913544)
          (norm2): LayerNorm((384,), eps=1e-05, elementwise_affine=True)
          (mlp): MoE_vmamba(
            (fc1): FMoESSMMLPOpt(
              (gate): CustomNaiveGate_Balance_SMoE(
                (gate): Linear(in_features=384, out_features=16, bias=True)
              )
              (experts): _Expert(
                (htoh4): FMoELinear(num_expert=16, in_features=384,         out_features=48, bias=True, rank=0)
                (h4toh): FMoELinear(num_expert=16, in_features=48,         out_features=384, bias=True, rank=0)
                (activation): GELU(approximate='none')
              )
            )
          )
        )
        (6): VSSBlock(
          (norm): LayerNorm((384,), eps=1e-05, elementwise_affine=True)
          (op): SS2D(
            (in_proj): Linear(in_features=384, out_features=1536, bias=False)
            (act): SiLU()
            (conv2d): Conv2d(768, 768, kernel_size=(3, 3), stride=(1, 1), padding=(1, 1), groups=768)
            (out_norm): LayerNorm((768,), eps=1e-05, elementwise_affine=True)
            (out_proj): Linear(in_features=768, out_features=384, bias=False)
            (dropout): Identity()
          )
          (drop_path): timm.DropPath(0.1428571492433548)
          (norm2): LayerNorm((384,), eps=1e-05, elementwise_affine=True)
          (mlp): MoE_vmamba(
            (fc1): FMoESSMMLPOpt(
              (gate): CustomNaiveGate_Balance_SMoE(
                (gate): Linear(in_features=384, out_features=16, bias=True)
              )
              (experts): _Expert(
                (htoh4): FMoELinear(num_expert=16, in_features=384,         out_features=48, bias=True, rank=0)
                (h4toh): FMoELinear(num_expert=16, in_features=48,         out_features=384, bias=True, rank=0)
                (activation): GELU(approximate='none')
              )
            )
          )
        )
        (7): VSSBlock(
          (norm): LayerNorm((384,), eps=1e-05, elementwise_affine=True)
          (op): SS2D(
            (in_proj): Linear(in_features=384, out_features=1536, bias=False)
            (act): SiLU()
            (conv2d): Conv2d(768, 768, kernel_size=(3, 3), stride=(1, 1), padding=(1, 1), groups=768)
            (out_norm): LayerNorm((768,), eps=1e-05, elementwise_affine=True)
            (out_proj): Linear(in_features=768, out_features=384, bias=False)
            (dropout): Identity()
          )
          (drop_path): timm.DropPath(0.15714286267757416)
          (norm2): LayerNorm((384,), eps=1e-05, elementwise_affine=True)
          (mlp): MoE_vmamba(
            (fc1): FMoESSMMLPOpt(
              (gate): CustomNaiveGate_Balance_SMoE(
                (gate): Linear(in_features=384, out_features=16, bias=True)
              )
              (experts): _Expert(
                (htoh4): FMoELinear(num_expert=16, in_features=384,         out_features=48, bias=True, rank=0)
                (h4toh): FMoELinear(num_expert=16, in_features=48,         out_features=384, bias=True, rank=0)
                (activation): GELU(approximate='none')
              )
            )
          )
        )
        (8): VSSBlock(
          (norm): LayerNorm((384,), eps=1e-05, elementwise_affine=True)
          (op): SS2D(
            (in_proj): Linear(in_features=384, out_features=1536, bias=False)
            (act): SiLU()
            (conv2d): Conv2d(768, 768, kernel_size=(3, 3), stride=(1, 1), padding=(1, 1), groups=768)
            (out_norm): LayerNorm((768,), eps=1e-05, elementwise_affine=True)
            (out_proj): Linear(in_features=768, out_features=384, bias=False)
            (dropout): Identity()
          )
          (drop_path): timm.DropPath(0.17142857611179352)
          (norm2): LayerNorm((384,), eps=1e-05, elementwise_affine=True)
          (mlp): MoE_vmamba(
            (fc1): FMoESSMMLPOpt(
              (gate): CustomNaiveGate_Balance_SMoE(
                (gate): Linear(in_features=384, out_features=16, bias=True)
              )
              (experts): _Expert(
                (htoh4): FMoELinear(num_expert=16, in_features=384,         out_features=48, bias=True, rank=0)
                (h4toh): FMoELinear(num_expert=16, in_features=48,         out_features=384, bias=True, rank=0)
                (activation): GELU(approximate='none')
              )
            )
          )
        )
      )
      (downsample): PatchMerging2D(
        (reduction): Linear(in_features=1536, out_features=768, bias=False)
        (norm): LayerNorm((1536,), eps=1e-05, elementwise_affine=True)
      )
    )
    (3): Sequential(
      (blocks): Sequential(
        (0): VSSBlock(
          (norm): LayerNorm((768,), eps=1e-05, elementwise_affine=True)
          (op): SS2D(
            (in_proj): Linear(in_features=768, out_features=3072, bias=False)
            (act): SiLU()
            (conv2d): Conv2d(1536, 1536, kernel_size=(3, 3), stride=(1, 1), padding=(1, 1), groups=1536)
            (out_norm): LayerNorm((1536,), eps=1e-05, elementwise_affine=True)
            (out_proj): Linear(in_features=1536, out_features=768, bias=False)
            (dropout): Identity()
          )
          (drop_path): timm.DropPath(0.18571428954601288)
          (norm2): LayerNorm((768,), eps=1e-05, elementwise_affine=True)
          (mlp): MoE_vmamba(
            (fc1): FMoESSMMLPOpt(
              (gate): CustomNaiveGate_Balance_SMoE(
                (gate): Linear(in_features=768, out_features=16, bias=True)
              )
              (experts): _Expert(
                (htoh4): FMoELinear(num_expert=16, in_features=768,         out_features=48, bias=True, rank=0)
                (h4toh): FMoELinear(num_expert=16, in_features=48,         out_features=768, bias=True, rank=0)
                (activation): GELU(approximate='none')
              )
            )
          )
        )
        (1): VSSBlock(
          (norm): LayerNorm((768,), eps=1e-05, elementwise_affine=True)
          (op): SS2D(
            (in_proj): Linear(in_features=768, out_features=3072, bias=False)
            (act): SiLU()
            (conv2d): Conv2d(1536, 1536, kernel_size=(3, 3), stride=(1, 1), padding=(1, 1), groups=1536)
            (out_norm): LayerNorm((1536,), eps=1e-05, elementwise_affine=True)
            (out_proj): Linear(in_features=1536, out_features=768, bias=False)
            (dropout): Identity()
          )
          (drop_path): timm.DropPath(0.20000000298023224)
          (norm2): LayerNorm((768,), eps=1e-05, elementwise_affine=True)
          (mlp): MoE_vmamba(
            (fc1): FMoESSMMLPOpt(
              (gate): CustomNaiveGate_Balance_SMoE(
                (gate): Linear(in_features=768, out_features=16, bias=True)
              )
              (experts): _Expert(
                (htoh4): FMoELinear(num_expert=16, in_features=768,         out_features=48, bias=True, rank=0)
                (h4toh): FMoELinear(num_expert=16, in_features=48,         out_features=768, bias=True, rank=0)
                (activation): GELU(approximate='none')
              )
            )
          )
        )
      )
      (downsample): Identity()
    )
  )
  (classifier): Sequential(
    (norm): LayerNorm((768,), eps=1e-05, elementwise_affine=True)
    (permute): Permute()
    (avgpool): AdaptiveAvgPool2d(output_size=1)
    (flatten): Flatten(start_dim=1, end_dim=-1)
    (head): Linear(in_features=768, out_features=1000, bias=True)
  )
)
[2024-08-22 13:35:12 vssm_tiny_v0] (main.py 116): INFO number of params: 31646968
